model_save/model_best.pth (torch, 13291 bytes, 12 tensors)

weight f4 [10, 20]
0	0x3dac2b67	0.08406716
1	0x3ec01789	0.37517956
2	0xbe0fc628	-0.14040434
3	0xbeb9ccad	-0.36288968
4	0x3ed78550	0.42093897
5	0x3eae21df	0.34010217
6	0xbde50f23	-0.11184528
7	0xbd396700	-0.045264244
8	0xbc5cfdf4	-0.0134882815
9	0x3e4e79e5	0.20163687
10	0x3ece8562	0.40336138
11	0x3ddd9c95	0.10820881
12	0x3eb0c575	0.34525648
13	0x3dc597e0	0.096481085
14	0xbd299248	-0.04139927
15	0xbe863652	-0.26213318
16	0xbe549f65	-0.20763929
17	0xbdd7faff	-0.105459206
18	0x3e8070c2	0.25086027
19	0x3ed3c207	0.4135897
20	0xbe2b238a	-0.16712776
21	0xbe35a538	-0.17738807
22	0x3d6ca7f4	0.05777736
23	0xbe96dd9c	-0.2946595
24	0xbe4aee8a	-0.19817558
25	0x3ebd0909	0.36920956
26	0xbea5343e	-0.3226642
27	0xbee054d6	-0.43814725
28	0x3e98de5b	0.29857144
29	0x3eb90208	0.36134362
30	0xbe10b5c2	-0.14131835
31	0xbd1cf0ae	-0.038315468
32	0xbab44b78	-0.0013755402
33	0x3e2bf254	0.1679166
34	0xbe573ffb	-0.210205
35	0x3e384f01	0.17998888
36	0x3e739f39	0.23791207
37	0x3eac4c37	0.33651897
38	0xbd2f86f4	-0.04285331
39	0xbe0f6635	-0.14003833
40	0xbcb8ed26	-0.022574019
41	0xbe038083	-0.12841992
42	0x3e99eeed	0.30065098
43	0xbe40f929	-0.18845047
44	0xbea56257	-0.3230159
45	0x3df0d8e8	0.117601216
46	0xbe3dca5f	-0.1853423
47	0x3ed37bc2	0.41305357
48	0xbed901e2	-0.4238425
49	0xbea79652	-0.32731873
50	0x3e130da2	0.1436067
51	0x3d855dda	0.065120414
52	0xbed27056	-0.4110133
53	0x3b678188	0.003532501
54	0x3e9d12a4	0.30678284
55	0x3e758356	0.23975882
56	0xbd481b5a	-0.04885421
57	0xbd0bff8b	-0.03417925
58	0xbe980404	-0.29690564
59	0x3e616d6b	0.22014396
60	0x3ea14d51	0.315043
61	0x3e8061d9	0.25074652
62	0x3ec92880	0.39288712
63	0x3e5a96ba	0.2134656
64	0x3cbfadf4	0.023398377
65	0xbea79eab	-0.32738242
66	0xbeca2537	-0.39481518
67	0x3e5ccbe2	0.2156215
68	0xbec73017	-0.38903877
69	0x3d2ad7c7	0.041709688
70	0x3cdfee39	0.027335273
71	0xba255990	-0.00063075963
72	0x3ed32fdf	0.4124746
73	0xbe5763a0	-0.21034098
74	0x3e0908c6	0.13382253
75	0x3e965d3a	0.29368
76	0x3ee0b842	0.43890578
77	0x3e406080	0.18786812
78	0xbec7e45a	-0.39041406
79	0x3e5673e9	0.20942654
80	0x3e631cbf	0.22178935
81	0xbee332d2	-0.4437471
82	0x3e9711db	0.2950581
83	0xbe1b25fa	-0.15151206
84	0x3e417a6e	0.1889436
85	0xbe6c5ded	-0.23082705
86	0xbce62588	-0.028094068
87	0xbeb1f4ad	-0.34756985
88	0x3ea69afb	0.32540116
89	0xbda7005a	-0.08154364
90	0x3eab8edf	0.3350744
91	0x3eadba9c	0.33931434
92	0x3dfd1446	0.123573825
93	0x3dc13adc	0.09435055
94	0xbde966b8	-0.11396545
95	0xbe9603f3	-0.29299888
96	0x3e5dac99	0.21647872
97	0xbe8f4a51	-0.27986386
98	0xbeb5d101	-0.3551102
99	0xbea35f29	-0.3190854
100	0x3ec31fdb	0.3811024
101	0xbeaab366	-0.33339995
102	0x3ec64dfa	0.38731366
103	0x3d16b218	0.036790937
104	0xbed46779	-0.41485193
105	0xbe855fb0	-0.26049566
106	0x3e9af5ae	0.30265564
107	0x3ea10d3e	0.31455415
108	0x3d5f0099	0.05444393
109	0xbebee45a	-0.37283593
110	0x3ecaeda1	0.3963442
111	0x3ea978a7	0.33099863
112	0xbe34c019	-0.17651404
113	0x3d08b887	0.033379104
114	0x3e8b4e8c	0.27208364
115	0xbeb04407	-0.344269
116	0xbe613581	-0.21993066
117	0xbe99db8d	-0.30050316
118	0xbd15effe	-0.036605828
119	0x3eacaa73	0.33723792
120	0x3e8b010c	0.27149236
121	0x3dee0801	0.116226204
122	0x3e8ebb77	0.278774
123	0xbe92c6a6	-0.28667182
124	0xbe8eeacd	-0.27913514
125	0x3eca2470	0.39480925
126	0x3e2d0b38	0.16898811
127	0x3e3e8671	0.18605973
128	0xbe8e006b	-0.27734694
129	0xbc3bad0a	-0.01145483
130	0xbcacac89	-0.021078365
131	0x3d735a6e	0.059412412
132	0xbe982fad	-0.29723874
133	0x3de0dd66	0.109797284
134	0x3eb379cc	0.3505386
135	0xbe074b94	-0.13212425
136	0x3e0ce9f6	0.13761124
137	0x3ed58ac3	0.4170743
138	0x3ec25a55	0.37959543
139	0xbb53e579	-0.0032332821
140	0xbe3dea8f	-0.18546508
141	0xbe1934ac	-0.14961499
142	0x3ed17c02	0.40914923
143	0xbe8a5998	-0.2702148
144	0xbe12cc25	-0.14335687
145	0xbd1b84b1	-0.03796834
146	0xbdb3c7f3	-0.08778372
147	0x3e96cda1	0.29453757
148	0xbe26f801	-0.16305543
149	0xbe91da41	-0.28486827
150	0xbe279f02	-0.1636925
151	0x3ec31324	0.3810054
152	0x3e6e3cf4	0.2326544
153	0xbce00100	-0.027344227
154	0xbe7d42ef	-0.24732564
155	0xbdc83630	-0.097759604
156	0xbe8c905f	-0.27453896
157	0x3eae4443	0.34036455
158	0x3eb6676c	0.3562578
159	0xbeb1079a	-0.34576112
160	0x3e6dbb9e	0.23216102
161	0xbe066d96	-0.13127741
162	0xbe245e01	-0.16051485
163	0x3e86e57c	0.26346958
164	0xbdb02b79	-0.08602042
165	0xbe5e6d48	-0.21721375
166	0xbecc4ce6	-0.3990242
167	0xbed622b4	-0.4182335
168	0xbeda61d0	-0.4265275
169	0xbed25fa4	-0.41088593
170	0x3d5fea05	0.054666538
171	0xbd98ae55	-0.07455126
172	0x3dae362a	0.08506425
173	0xbd84ca5f	-0.06483912
174	0x3d6b15ff	0.057394024
175	0xbdcc6eed	-0.09982095
176	0x3e9133f7	0.2835996
177	0x3eb48efe	0.35265344
178	0xbe16f41a	-0.14741555
179	0xbead8739	-0.3389223
180	0x3dc6f752	0.09715141
181	0xbed6a551	-0.41923
182	0xbe6f050d	-0.2334177
183	0x3da88e7e	0.08230303
184	0xbd659722	-0.056052335
185	0xbd5c9f50	-0.05386287
186	0xbe8d5abf	-0.27608296
187	0xbe7ef61c	-0.24898571
188	0x3e1a7855	0.15084966
189	0x3e06b8a6	0.13156375
190	0x3e412316	0.1886104
191	0xbda39535	-0.07987443
192	0x3e97986c	0.29608476
193	0xbe593e2b	-0.21215121
194	0x3e662694	0.22475654
195	0xbea6b5b3	-0.325605
196	0xbdb1bc6f	-0.08678519
197	0x3e77ec1d	0.24211164
198	0xbed14821	-0.40875342
199	0xbe6e8ef3	-0.23296718

bias f4 [20]
0	0xbd2419a3	-0.04006351
1	0x3a97bb1c	0.0011576149
2	0x3c1bb4ae	0.009503527
3	0xbd23d3d2	-0.03999693
4	0x3b73bd72	0.0037191776
5	0xbcdeaffe	-0.027183529
6	0xbce28bbd	-0.027654523
7	0xbc5ab6da	-0.013349259
8	0xba27d250	-0.00064018834
9	0xbb92ca25	-0.004479664
10	0xbd2163df	-0.039401885
11	0xbcd81321	-0.026376309
12	0xb9c01b20	-0.00036641303
13	0xbcfe1062	-0.031013671
14	0xbc5114c8	-0.012761302
15	0xbc1585b1	-0.009126113
16	0xba7a87b0	-0.0009556962
17	0xbaf5d6cc	-0.0018756031
18	0xbcacc5c0	-0.021090388
19	0xbcf3f676	-0.029780608

weight f4 [20, 20]
0	0x3e01e598	0.1268524
1	0x3d7dd048	0.06196621
2	0xbd0dcb49	-0.034617696
3	0xbe8865b4	-0.26640093
4	0x3e23b0e2	0.15985444
5	0xbe2c5a2d	-0.16831274
6	0xbde567c1	-0.1120143
7	0x3e08ca8d	0.13358517
8	0x3e068a7e	0.13138768
9	0x3e89d17d	0.2691764
10	0x3d5b517e	0.053544514
11	0xbd89d7ee	-0.067306384
12	0xbe55ada0	-0.20867014
13	0xbd75b884	-0.05999042
14	0xbdae6969	-0.08516199
15	0x3d8b5b0f	0.068044774
16	0x3e42a9de	0.19010112
17	0xbeaca8f2	-0.33722645
18	0x3d085762	0.03328646
19	0x3ea6b460	0.3255949
20	0x3dd94ae9	0.10609991
21	0x3e83b5a8	0.2572453
22	0xbea22243	-0.31666765
23	0x3ea08a3d	0.31355467
24	0x3e841114	0.2579428
25	0x3e98f062	0.29870898
26	0x3df0d8d8	0.1176011
27	0xbeb2181a	-0.34784013
28	0x3e621051	0.22076537
29	0xbea18e69	-0.31553963
30	0xbe69ec8f	-0.22844146
31	0xbe264824	-0.16238457
32	0xbe0454ef	-0.12923025
33	0x3ea15910	0.31513262
34	0x3ddf3df5	0.10900489
35	0x3e820b4c	0.25399244
36	0x3ec0e5cd	0.37675324
37	0x3cff7c24	0.031187125
38	0xbe359fa0	-0.17736673
39	0xbd469f2f	-0.048491653
40	0xbcb3ba11	-0.02193931
41	0xbead0218	-0.3379066
42	0x3d889155	0.06668345
43	0x3d5e24a6	0.05423417
44	0xbd3208e9	-0.04346553
45	0xbe466eab	-0.19378154
46	0x3e03b4d2	0.12861946
47	0x3dec845a	0.115486816
48	0x3da3f328	0.08005363
49	0xbe657bda	-0.22410527
50	0xbdd46186	-0.103701636
51	0x3dc9957e	0.098429665
52	0x3eb62109	0.3557208
53	0xbdf84003	-0.12121584
54	0xbe9bcb85	-0.3042871
55	0xbe6089d0	-0.21927571
56	0xbe471899	-0.19442977
57	0xbe05089c	-0.12991565
58	0xbe4db7a1	-0.2008958
59	0xbcba6610	-0.022753745
60	0x3eb24748	0.34820008
61	0x3e0bfe9d	0.13671346
62	0xbe8878c0	-0.26654625
63	0xbdb53987	-0.08848863
64	0x3e7d76a8	0.24752295
65	0x3d2d3104	0.042283073
66	0x3ec264ed	0.37967625
67	0x3c8e79fc	0.017392151
68	0xbe3aac75	-0.1822985
69	0x3e81eefc	0.25377643
70	0xbe8a6e7a	-0.27037412
71	0xbe95f47f	-0.29288098
72	0xbd9f98c9	-0.07792813
73	0xbeab78d9	-0.33490637
74	0x3db1f448	0.08689171
75	0x3de819ab	0.11333021
76	0x3e94f54f	0.29093406
77	0x3e404b9a	0.1877884
78	0x3ea8fe88	0.33006692
79	0xbe18030b	-0.14844911
80	0x3e50c924	0.20389229
81	0xbec72a51	-0.38899472
82	0x3df0412c	0.117311805
83	0xbde48144	-0.11157468
84	0xbe09af33	-0.1344574
85	0x3e64c5df	0.22341107
86	0x3ec3620a	0.38160735
87	0xbe216477	-0.1576098
88	0xbe34a0e7	-0.17639504
89	0xbe565f6c	-0.20934838
90	0x3e70972d	0.23495169
91	0x3dd0ec9c	0.1020138
92	0x3e8f5d94	0.28001082
93	0xbe8b4629	-0.27201965
94	0xbda718cc	-0.081590265
95	0x3dd14bde	0.10219549
96	0xbe3db387	-0.18525515
97	0xbde81514	-0.11332145
98	0xbd6167d4	-0.05503066
99	0x3e5265a1	0.20546581
100	0x3d65b21d	0.056078065
101	0xbec18982	-0.37800223
102	0xbde3c8f8	-0.11122316
103	0xbdba0a0c	-0.090839475
104	0x3e0ba919	0.13638724
105	0xbe5964b2	-0.21229818
106	0xbeb04809	-0.34429958
107	0x3e52e504	0.20595175
108	0x3e980b0f	0.29695937
109	0xbecc65e1	-0.39921477
110	0xbeadf99b	-0.33979496
111	0x3dea4a2b	0.11439928
112	0x3e63159d	0.22176214
113	0x3e695c00	0.22789001
114	0xbeb26560	-0.34842968
115	0xbe9a0342	-0.3008061
116	0xbebee5cf	-0.37284705
117	0x3e1ca196	0.15296015
118	0xbc1a65ec	-0.009423714
119	0x3dcb5dca	0.09929998
120	0x3deaee99	0.1147129
121	0x3d94578a	0.07243259
122	0xb8b617b0	-8.6828484e-05
123	0x3ed1bf04	0.40966046
124	0xbe7b6a58	-0.24552286
125	0x3e802b3e	0.2503299
126	0xbdef572f	-0.11686551
127	0x3e25a21c	0.16175121
128	0xbe81d61f	-0.25358674
129	0xbeb5e24f	-0.35524222
130	0xbd82a906	-0.06379895
131	0x3e4fef09	0.20306028
132	0x3e38aab0	0.18033862
133	0xbe36ae6a	-0.17839971
134	0xbcec4d6a	-0.028845508
135	0xbe7e2950	-0.24820447
136	0x3eb4561f	0.35221955
137	0x3e290a4c	0.16507834
138	0x3e3063bf	0.1722555
139	0xbe3200fe	-0.17383191
140	0x3e3c3379	0.1837901
141	0xbec064ae	-0.37576813
142	0xbe95b72a	-0.29241306
143	0xbe270fc8	-0.16314614
144	0x3e9ebcb4	0.31003344
145	0xbe489b40	-0.19590473
146	0xbdc54e86	-0.09634118
147	0xb9cf4850	-0.00039535994
148	0x3c7d2efe	0.015453098
149	0x3e901b55	0.28145853
150	0xbe70c66b	-0.2351319
151	0xbe14834c	-0.14503211
152	0xbc3d6b3a	-0.011561209
153	0xbd487516	-0.048939787
154	0xbd640754	-0.05567105
155	0x3e02c4fb	0.12770455
156	0xbec16788	-0.377743
157	0x3e9683d6	0.29397458
158	0xbe692a2a	-0.2276999
159	0xbe32fde9	-0.17479672
160	0x3debaa1d	0.11507056
161	0x3eafd84f	0.34344718
162	0x3e80fb1f	0.2519159
163	0xbea1e62f	-0.3162093
164	0x3e88e077	0.26733753
165	0x3eb8b3f8	0.36074805
166	0xbc92b25c	-0.017907314
167	0xbea18a57	-0.31550857
168	0xbda50278	-0.080571115
169	0xbe7e072c	-0.24807423
170	0xbd766f50	-0.06016475
171	0x3d2b129a	0.041765787
172	0xbc9b22ae	-0.018937435
173	0x3e4d7676	0.2006472
174	0xbeb47596	-0.3524596
175	0xbdab2978	-0.08357519
176	0x3e91811d	0.28418818
177	0xbce9c636	-0.028536897
178	0xbeadc92d	-0.33942547
179	0xbdc1923a	-0.09451719
180	0xbea40c9c	-0.3204087
181	0xbcf2477d	-0.029575104
182	0xbca689e7	-0.020329429
183	0xbe6e77d6	-0.23287901
184	0x3e860d69	0.26182106
185	0xbe9b13e2	-0.30288607
186	0xbe9ac1f1	-0.3022609
187	0xbc65dbf4	-0.014029492
188	0x3d50f816	0.051017843
189	0xbd9e61d8	-0.07733506
190	0x3e87690b	0.2644733
191	0xbe6eb6a8	-0.23311865
192	0xbec116ec	-0.377128
193	0xbe6f8089	-0.23388876
194	0xbe6378de	-0.22214076
195	0x3eb8a1a8	0.36060834
196	0x3d8686f1	0.06568707
197	0x3ebbf255	0.36708322
198	0x3e4f7930	0.20261073
199	0xbecc31b7	-0.3988168
200	0x3e4e7ca4	0.20164734
201	0xbe517a4c	-0.20456809
202	0x3d693b3d	0.05694126
203	0xbe99a51d	-0.30008784
204	0x3da60dfc	0.08108136
205	0xbd000846	-0.03125789
206	0xbe589e07	-0.21154033
207	0xbdadc8e2	-0.08485581
208	0xbd8099ea	-0.06279357
209	0xbec04656	-0.37553662
210	0x3ec0acf0	0.3763194
211	0xbd20bd44	-0.039242998
212	0x3c0685db	0.008210625
213	0xbd8e0657	-0.06934803
214	0xbcf9ddf6	-0.030501347
215	0xbe5da310	-0.21644235
216	0x3e6ff862	0.23434594
217	0x3de4cd5e	0.11171983
218	0x3d98c02c	0.07458529
219	0x3e4f2fd3	0.20233087
220	0xbea09388	-0.31362557
221	0x3dd0e4a0	0.10199857
222	0xbeb4166a	-0.3517335
223	0xbe5b58e8	-0.21420634
224	0xbe4f03b4	-0.20216256
225	0x3dbeac6e	0.09310232
226	0x3dbb776c	0.09153637
227	0x3e4facfe	0.20280835
228	0xbec301b3	-0.38087234
229	0xbdca83fb	-0.098884545
230	0xbebe4d27	-0.37168238
231	0xbd9ee6f9	-0.07758898
232	0xbe77c8e9	-0.24197735
233	0x3e8e7dd2	0.27830368
234	0xbeb67809	-0.35638455
235	0xbe78f112	-0.24310711
236	0xbe8e6817	-0.2781379
237	0xbe451ee2	-0.19250062
238	0x3ea9b9c2	0.33149534
239	0x3ea8721a	0.32899553
240	0xbeb26ee2	-0.34850222
241	0x3ea0dad5	0.31416956
242	0xbe15ce63	-0.14629512
243	0xbeb929f7	-0.3616483
244	0xbe59db3e	-0.2127504
245	0x3e2d3c8c	0.16917628
246	0xbea919af	-0.33027408
247	0xbeac51e2	-0.33656222
248	0x3dd6e771	0.10493363
249	0x3ba342ff	0.004982352
250	0xbe6a8730	-0.22903132
251	0x3ddf10b9	0.108918615
252	0xbebba5a4	-0.3664981
253	0x3dfe42d8	0.12415093
254	0x3e963796	0.29339284
255	0x3e9abf78	0.30224204

bias f4 [20]
0	0xbcabec7f	-0.020986794
1	0xbccf816c	-0.025330268
2	0xbb8ef942	-0.00436321
3	0x3c6fa784	0.014627341
4	0x3be29469	0.0069146645
5	0x3c295fd4	0.010337789
6	0xbb272a17	-0.0025507265
7	0xbcf5d97e	-0.030010935
8	0xbcd04f1c	-0.025428347
9	0xbcf359bd	-0.029705876
10	0xbc0ea39e	-0.008706002
11	0xbb9da358	-0.004810732
12	0xbd079520	-0.0331012
13	0xbc3f0d0d	-0.011660826
14	0x3c98db65	0.018659303
15	0xbb3d3380	-0.0028869808
16	0x3b382a3a	0.002810134
17	0xbca5444d	-0.02017417
18	0xbd0e572f	-0.034751114
19	0xbcd6e4f1	-0.026232215

weight f4 [20, 20]
0	0xbeb73200	-0.35780334
1	0xbdf47c32	-0.11937751
2	0xbe37e9b4	-0.17960244
3	0x3ea79e65	0.32738033
4	0x3e24cca7	0.16093694
5	0xbcd79215	-0.026314775
6	0xbc53ba48	-0.012922831
7	0x3e29ce50	0.16582608
8	0xbe55d884	-0.20883375
9	0x3d0ab113	0.033860277
10	0x3de8ff4c	0.11376819
11	0x3e533db7	0.20629011
12	0xbe6d937b	-0.2320079
13	0xbea005f2	-0.31254536
14	0xbe281cbd	-0.16417213
15	0xbdc2f8f8	-0.09520143
16	0xbe0b555e	-0.13606784
17	0xbdb30122	-0.087404504
18	0xbd2aa1fc	-0.041658387
19	0x3e47b6e7	0.19503365
20	0x3e61962a	0.2202994
21	0x3e3901ec	0.1806714
22	0x3e77cc20	0.24198961
23	0x3e6121ea	0.21985593
24	0x3e6b12cf	0.22956394
25	0xbe5e2e54	-0.2169736
26	0xbebc31cf	-0.3675675
27	0xbe14c6c5	-0.1452895
28	0x3dc6cdb3	0.09707203
29	0x3de3ab97	0.111167125
30	0xbc93600a	-0.01799013
31	0x3e208951	0.15677382
32	0x3ea3e719	0.3201225
33	0x3e6e6271	0.2327974
34	0xba62c62e	-0.0008650747
35	0xbe96aa28	-0.29426694
36	0x3e750723	0.23928504
37	0xbea95c04	-0.33078015
38	0xbeb12288	-0.34596658
39	0xbe301cb4	-0.1719845
40	0x3e41ef50	0.18938947
41	0xbe9791f7	-0.2960355
42	0xbe81d176	-0.2535512
43	0x3d5a2fce	0.053268246
44	0x3e6ec924	0.23318917
45	0xbe8bf7d0	-0.27337503
46	0xbe4dce5c	-0.20098251
47	0xbd34b6e6	-0.044119738
48	0x3d1a3acf	0.03765374
49	0xbd1005dc	-0.035161838
50	0x3e8e49ce	0.27790684
51	0x3e845610	0.2584691
52	0x3d428637	0.04749128
53	0xbde55a20	-0.111988306
54	0x3e7aa459	0.24476756
55	0x3e024896	0.12723002
56	0xbe7de9be	-0.24796197
57	0xbcc2fcd8	-0.023802206
58	0x3ecb3910	0.39691973
59	0x3d974a15	0.07387177
60	0x3e1275f4	0.14302808
61	0xbe18715b	-0.14886992
62	0x3e5e5241	0.21711065
63	0xbeb35f6b	-0.35033736
64	0xbe0a1818	-0.13485754
65	0xbe888d02	-0.2667008
66	0xbea20740	-0.31646156
67	0x3e93abec	0.28842103
68	0x3dfecc05	0.124412574
69	0x3ba1325d	0.004919334
70	0x3a873180	0.0010314435
71	0x3e80f327	0.2518551
72	0x3db64d50	0.08901465
73	0xbe103574	-0.14082891
74	0xbdb38137	-0.0876488
75	0x3e8d9f4f	0.27660605
76	0xbeacd4a8	-0.33755994
77	0xbe55d1e7	-0.20880853
78	0xbe0797a9	-0.13241448
79	0xbdf0784d	-0.117416956
80	0x3eaadaff	0.33370206
81	0xbe66e1ac	-0.22547024
82	0xbe8dd5dc	-0.27702224
83	0xbd7e26a8	-0.062048584
84	0xbed0f8d7	-0.4081485
85	0x3e10d575	0.14143927
86	0x3d98ff4a	0.074705675
87	0x3caab3a4	0.020837612
88	0xbaf500b6	-0.0018692228
89	0xbe5b3430	-0.21406627
90	0xbdb4afff	-0.08822631
91	0xbe8595bc	-0.260908
92	0x3e9e37f9	0.3090208
93	0x3ea91797	0.3302581
94	0xbdad5b1d	-0.08464644
95	0xbe98c3a7	-0.2983677
96	0x3e54b82d	0.20773382
97	0xbe348a12	-0.17630795
98	0x3eb46e97	0.35240623
99	0xbde131d0	-0.10995829
100	0x3dba0ac2	0.09084083
101	0x3e7ee3ce	0.24891588
102	0xbcba1154	-0.02271334
103	0xbdba113f	-0.09085321
104	0xbeb83c86	-0.35983676
105	0xbe42bbff	-0.19017027
106	0xbe82b601	-0.25529483
107	0xbe894d69	-0.26816872
108	0x3d47bd80	0.048764706
109	0x3e30cca7	0.17265569
110	0xbdb14843	-0.08656361
111	0x3e41b071	0.18914963
112	0xbe9568c0	-0.2918148
113	0x3d588302	0.052859314
114	0x3e88f659	0.26750448
115	0xbd60d6aa	-0.05489222
116	0xbe680cec	-0.2266118
117	0x3e89c9a6	0.26911658
118	0x3d1fb278	0.03898856
119	0xbec4fdbe	-0.3847484
120	0xbe8738db	-0.26410565
121	0xbdd7c135	-0.10534898
122	0xbd54a455	-0.05191453
123	0x3db363fc	0.08759305
124	0xbd04748f	-0.03233772
125	0xbe859e59	-0.26097372
126	0x3d059798	0.032615274
127	0xbe792a81	-0.2433262
128	0xbdfd0298	-0.1235401
129	0x3d907343	0.070532344
130	0xbe8ebd3d	-0.27878752
131	0xbe5d0561	-0.21584083
132	0xbe7a02ae	-0.24415085
133	0xbea0e315	-0.3142325
134	0x3e029d37	0.12755285
135	0xbe3b4dae	-0.18291351
136	0x3e0365a3	0.1283174
137	0xbe8c688a	-0.27423507
138	0x3e554416	0.20826754
139	0x3e91a2c5	0.28444496
140	0xbe476d2b	-0.19475238
141	0xbeb82c0d	-0.35971108
142	0x3e8feb3b	0.28109154
143	0x3e6b6bbc	0.22990316
144	0x3cec4b79	0.028844582
145	0x3d98b06a	0.07455523
146	0x3cc0b828	0.023525313
147	0x3b4872e0	0.003058605
148	0xbe71b994	-0.23605949
149	0x3ea1eb55	0.31624857
150	0x3deaa054	0.114563614
151	0xbe6b6159	-0.22986354
152	0xbe314e57	-0.1731504
153	0x3eac33ff	0.3363342
154	0xbb3687b6	-0.0027851886
155	0xbdbe7978	-0.09300512
156	0xbebdb2b8	-0.37050414
157	0x3df66443	0.12030842
158	0xbea5611a	-0.32300645
159	0xbbbe7572	-0.0058123404
160	0xbeba4491	-0.36380437
161	0x3ddfa0a3	0.10919311
162	0xbde4987d	-0.11161897
163	0xbbeb36ac	-0.0071781483
164	0xbe059dbb	-0.1304845
165	0x3dee605a	0.11639471
166	0xbeb8836a	-0.3603776
167	0x3e8c0e21	0.2735453
168	0xbe21519e	-0.1575379
169	0xbe89e688	-0.26933694
170	0x3d8c938e	0.06864081
171	0xbd410724	-0.04712595
172	0x3e073065	0.13202055
173	0x3d429d46	0.04751327
174	0x3e2e7a6c	0.17038888
175	0xbe4465bc	-0.19179434
176	0x3d796ce9	0.06089488
177	0x3e2a68e8	0.16641581
178	0xbd143ef9	-0.036192868
179	0x3e83f1d0	0.25770426
180	0xbcfd4708	-0.03091766
181	0x3e64c934	0.22342378
182	0x3e54e2db	0.20789663
183	0x3e4fd590	0.20296311
184	0xbec49cbd	-0.38400832
185	0x3cfa0916	0.03052191
186	0xbdce4292	-0.10071291
187	0x3d8610b1	0.065461524
188	0xbe5f2a3a	-0.21793452
189	0x3e810f85	0.25207153
190	0x3d9752dd	0.07388852
191	0x3e8cc0a0	0.2749071
192	0xbea243a7	-0.3169224
193	0xbea480e0	-0.32129574
194	0x3a64823e	0.00087169174
195	0xbdb7b53c	-0.089701146
196	0xbe9aebd5	-0.3025805
197	0xbe3479e0	-0.17624617
198	0xbd805269	-0.062657185
199	0xbcc03868	-0.023464397
200	0xbe62fd54	-0.2216695
201	0x3d87d2ca	0.06632002
202	0xbe7c9242	-0.24665168
203	0xbe8a6587	-0.27030584
204	0xbed01e8c	-0.40648305
205	0xbe5b6bc6	-0.21427831
206	0xbe06938a	-0.13142219
207	0x3e611caa	0.2198359
208	0xbca5501a	-0.020179797
209	0x3e82abd8	0.2552173
210	0xbea8999d	-0.32929698
211	0x3ea91555	0.33024088
212	0x3eb8c261	0.360858
213	0x3e96a815	0.2942511
214	0xbe777b85	-0.24168213
215	0xbd88da9f	-0.06682324
216	0xbe84d4da	-0.25943643
217	0xbe7f5f6b	-0.24938743
218	0xbeb899e5	-0.36054912
219	0xbea6efe2	-0.3260489
220	0x3d9b304f	0.075775735
221	0x3e7bb61e	0.24581191
222	0x3e96c54c	0.294474
223	0xbe34f279	-0.17670621
224	0xbe3b031f	-0.1826291
225	0x3ea0fbe4	0.31442177
226	0xbe1f7fc0	-0.15576077
227	0xbd8a69d5	-0.06758467
228	0x3e98651b	0.29764637
229	0xbe4b69a3	-0.19864516
230	0x3eb5b828	0.35492063
231	0xbebf086b	-0.3731111
232	0x3dfb0e1c	0.122585505
233	0xbdf93f04	-0.121702224
234	0x3e022595	0.12709649
235	0xbdc85d10	-0.09783375
236	0x3b31457f	0.002704948
237	0xbe9fd621	-0.31218055
238	0xbc247e02	-0.010039808
239	0xbe846ba2	-0.25863367
240	0xbe0f6f4f	-0.14007305
241	0x3bd298fa	0.0064269276
242	0xbebd2bbf	-0.36947438
243	0x3e29e68b	0.16591851
244	0xbea841a8	-0.32862592
245	0x3e40775d	0.18795533
246	0x3cdf10d3	0.027229702
247	0xbea06ae1	-0.31331542
248	0xbe2c2b80	-0.16813469
249	0xbca5effc	-0.020256035
250	0xbd6a151b	-0.057149034
251	0x3e05d4b1	0.13069417
252	0xbea0db27	-0.314172
253	0x3e8f1500	0.2794571
254	0x3eb3bc89	0.35104778
255	0xbe1b4ac3	-0.15165238

bias f4 [20]
0	0x3c81de47	0.01585306
1	0xbbe774f1	-0.007063501
2	0xbd0de356	-0.034640633
3	0xbcdd276e	-0.02699634
4	0xbce1be58	-0.027556583
5	0xbcdf5245	-0.027260909
6	0xbc370a7b	-0.011171932
7	0xbd19079c	-0.037360772
8	0x3c8967a4	0.016773053
9	0xbd19ef32	-0.03758163
10	0x3c01dfb2	0.007926868
11	0xbcc0139f	-0.023446856
12	0xbb9594f6	-0.0045648767
13	0xbc1cc7ce	-0.0095691215
14	0xbc67a9d8	-0.014139615
15	0x3c391644	0.011296812
16	0xbc9d34d8	-0.019190237
17	0x3d0e538d	0.03474765
18	0x3c509040	0.012729704
19	0xbd13c8c8	-0.03608015

weight f4 [20, 20]
0	0xbe92cc43	-0.28671464
1	0x3eb9d9b9	0.36298922
2	0x3e28fb8e	0.1650221
3	0xbea786d4	-0.32720053
4	0x3ebcc344	0.36867726
5	0x3e8b3649	0.27189854
6	0xbec3cfec	-0.3824457
7	0x3dce7cc3	0.1008239
8	0xbe80ef38	-0.2518251
9	0xbddee76e	-0.108839855
10	0xbc2dcf98	-0.010608576
11	0x3bb19cb7	0.005420293
12	0xbded5bb2	-0.11589755
13	0x3ebf0f32	0.3731628
14	0xbe823ee7	-0.25438616
15	0xbeab59fd	-0.33467093
16	0xbea79a5c	-0.32734954
17	0xbe9f506c	-0.31116045
18	0x3eac2f58	0.3362987
19	0x3dfdbbaa	0.1238931
20	0xbe8c572b	-0.27410254
21	0xbec61c2e	-0.38693374
22	0xbebc12aa	-0.3673299
23	0x3e81e9eb	0.25373778
24	0xbdedd06e	-0.116120204
25	0xbea921a0	-0.33033466
26	0xbe790bd4	-0.24320918
27	0x3e043131	0.1290939
28	0x3e338103	0.17529683
29	0xbe4476a4	-0.19185883
30	0x3eafa14e	0.34302753
31	0x3e2bd45c	0.16780227
32	0xbe4ffa9c	-0.20310444
33	0x3e190bea	0.14945951
34	0x3e791b99	0.24326934
35	0x3e6a1a64	0.2286163
36	0x3d258e27	0.04041877
37	0x3e87aae9	0.26497582
38	0x3daec847	0.085342936
39	0x3db71d59	0.089411445
40	0xbe190c36	-0.14946064
41	0x3ddce50d	0.107858755
42	0xbe9e0056	-0.3085963
43	0x3e0ebda8	0.13939536
44	0x3ca521a0	0.020157635
45	0x3e22c0f5	0.1589392
46	0x3eaede57	0.34154007
47	0x3ebc8074	0.36816752
48	0xbd0c9e27	-0.034330513
49	0x3e7521fa	0.23938742
50	0x3e03068c	0.12795466
51	0x3e5ce151	0.21570326
52	0x3e942bc1	0.28939632
53	0x3ca3985b	0.01997011
54	0xbebf9c02	-0.37423712
55	0xbca4bc4f	-0.020109324
56	0x3d2064d0	0.039158642
57	0x3d0995b7	0.033590045
58	0x3c9215f8	0.017832741
59	0xbdaf2838	-0.08552593
60	0x3dd01cc3	0.10161736
61	0x3d3bafba	0.045821883
62	0x3e870fe2	0.26379305
63	0xbe831f2a	-0.25609714
64	0x3e0bdc6b	0.13658302
65	0xbec104b8	-0.37698913
66	0xbd9f5a0b	-0.07780846
67	0x3e612455	0.21986516
68	0xbe321d77	-0.17394052
69	0xbe26abca	-0.1627647
70	0x3e1a77b8	0.15084732
71	0xbeb0e048	-0.34546113
72	0xbd12a976	-0.03580614
73	0x3d44d2f4	0.048052743
74	0xbe809af7	-0.2511823
75	0x3e531698	0.20614088
76	0x3ebbf2b4	0.36708605
77	0xbe3ab57e	-0.18233296
78	0x3d46d61e	0.04854404
79	0x3d93236a	0.07184489
80	0x3e6b6ed0	0.2299149
81	0x3d4e5554	0.050374344
82	0xbe6de201	-0.23230745
83	0xbe5f293a	-0.2179307
84	0x3e589d4c	0.21153754
85	0x3ec241f4	0.37940943
86	0x3ea9183d	0.33026305
87	0x3e531768	0.20614398
88	0xbeac51cf	-0.33656165
89	0x3d3f0c4c	0.046642587
90	0x3dbc1885	0.09184364
91	0x3e3e15df	0.1856303
92	0xbcd287b7	-0.02569948
93	0xbd9037cc	-0.070418924
94	0xbd56ccb1	-0.052441303
95	0xbe47092f	-0.19437097
96	0xbdca4250	-0.09875929
97	0xbe299202	-0.16559604
98	0x3eb3c149	0.35108402
99	0xbe7431e3	-0.23847155
100	0x3e57cf21	0.21075107
101	0x3e172251	0.14759184
102	0xbd254033	-0.04034443
103	0xbe0775f2	-0.13228586
104	0xbcb76ff1	-0.022392245
105	0xbe13841e	-0.14405867
106	0x3d9b6ece	0.07589494
107	0xbdd0b85a	-0.10191412
108	0x3e4f2ba7	0.20231496
109	0xbe872ba7	-0.26400492
110	0x3ea2e823	0.3181773
111	0xbe7909dd	-0.24320169
112	0xbdd0417e	-0.10168742
113	0xbe023dbb	-0.12718861
114	0x3ea36636	0.31913918
115	0x3e370cfe	0.1787605
116	0x3db92823	0.090408586
117	0x3b26375c	0.0025362587
118	0x3e4d84de	0.20070216
119	0xbd83c265	-0.06433562
120	0x3d9c1fff	0.0762329
121	0x3d461245	0.048357267
122	0x3e9cb81e	0.3060922
123	0x3e085ac9	0.13315882
124	0xbd6034cf	-0.054737862
125	0x3da074d0	0.0783478
126	0x3e3e5a3d	0.1858911
127	0x3e1c6239	0.15271844
128	0xbc22f029	-0.009944954
129	0x3db9a225	0.0906413
130	0xbd82a94e	-0.063799486
131	0xbe8e2e0a	-0.277695
132	0x3ebee1f8	0.37281775
133	0xbeb020cc	-0.34400022
134	0xbc6a3092	-0.014293807
135	0x3e1cc881	0.15310861
136	0xbe776439	-0.24159326
137	0x3e8d3280	0.2757759
138	0xbe966c45	-0.29379478
139	0xbe257af6	-0.16160187
140	0xbe7fe179	-0.24988355
141	0xbdb3f84a	-0.08787592
142	0x3e0b32bc	0.13593572
143	0x3dec6655	0.11542956
144	0xbdf690b2	-0.12039317
145	0x3e0d2edb	0.13787405
146	0x3e27e6af	0.16396593
147	0xbdeded56	-0.11617534
148	0xbeb09bbc	-0.34493816
149	0xbe3062d5	-0.17225201
150	0x3e9d5f2f	0.30736682
151	0x3dcb0ddb	0.09914752
152	0xbdd7f076	-0.10543911
153	0xbe00822d	-0.12549658
154	0x3e9c8fb0	0.30578375
155	0x3e814a7a	0.25252134
156	0x3e64fde3	0.22362475
157	0x3e890645	0.26762596
158	0xbe92b784	-0.28655636
159	0xbec6bfa5	-0.38818088
160	0x3e85900d	0.26086465
161	0xbd80faca	-0.06297834
162	0xbe2bc987	-0.16776095
163	0x3e028f03	0.12749867
164	0xbd934608	-0.07191092
165	0xbe7e4ac0	-0.24833202
166	0xbc4589ae	-0.012056751
167	0x3ea792d6	0.32729214
168	0xbebd18d3	-0.36933002
169	0x3e1ba236	0.15198597
170	0xbe9317cc	-0.28729093
171	0xbe5ddcc6	-0.2166625
172	0xbdf7dc03	-0.12102511
173	0x3db1a687	0.08674341
174	0xbe9c2950	-0.3050027
175	0xbe6b4157	-0.22974144
176	0xbe1b0dfc	-0.15142053
177	0xbe5718ca	-0.2100555
178	0x3e8b9ba5	0.27267185
179	0xbe12c2c0	-0.14332104
180	0xbe592475	-0.21205314
181	0xbceb2f41	-0.028709056
182	0xbe314e05	-0.17314918
183	0x3e65e9d7	0.22452484
184	0xbe3ba828	-0.18325865
185	0xbead140f	-0.33804366
186	0xbd501395	-0.050799925
187	0x3eb27fd0	0.34863138
188	0xbe74066c	-0.23830575
189	0x3e472952	0.19449356
190	0xbe9689fb	-0.29402146
191	0x3ea6e45c	0.325961
192	0xbd5c9a2c	-0.053857967
193	0x3eb07bb1	0.3446937
194	0x3e1ff98e	0.15622541
195	0x3e2ea097	0.17053448
196	0x3e64629f	0.22303246
197	0x3e15d9c0	0.14633846
198	0x3e9bba8c	0.3041576
199	0x3eb74ae9	0.3579934
200	0x3ebbf4db	0.36710247
201	0xbe0d08b2	-0.13772848
202	0x3dea8672	0.11451425
203	0xbe9218cc	-0.28534544
204	0xbe246be2	-0.16056779
205	0xbab7db60	-0.0014027171
206	0x3e57896c	0.21048516
207	0xbdb2ffe0	-0.087402105
208	0x3ddf83ac	0.10913786
209	0xbcd67a4a	-0.026181359
210	0xbec325c3	-0.38114747
211	0x3de56117	0.11200159
212	0xbe6d750d	-0.23189183
213	0x3e487582	0.19576076
214	0xbe1f61fb	-0.1556472
215	0x3d2bd991	0.041955534
216	0xbe86f9aa	-0.26362354
217	0xbe72c937	-0.2370957
218	0xbc99fcdd	-0.018797332
219	0x3e90592e	0.2819304
220	0x3c9c4da5	0.019079993
221	0xbeb8cc3e	-0.36093324
222	0xbbdd8e19	-0.006761324
223	0xbeb2a88e	-0.34894222
224	0x3def108e	0.116730794
225	0x3e92e67c	0.2869147
226	0x3e098c3a	0.13432398
227	0x3e90e367	0.28298494
228	0x3df07c55	0.117424645
229	0xbe047ecb	-0.12938993
230	0x3a907ba6	0.0011023178
231	0xbdbadf04	-0.09124568
232	0xbcd2ce40	-0.025733113
233	0xbea996f8	-0.33122993
234	0x3e835602	0.25651556
235	0x3e1d7726	0.15377483
236	0xbe8b3608	-0.2718966
237	0x3db280bd	0.08715961
238	0xbe6d5106	-0.23175439
239	0xbea4aaf5	-0.3216168
240	0xbea1bb9a	-0.3158844
241	0xbe8b7096	-0.27234334
242	0xbdc8f65f	-0.098126166
243	0x3e60e88d	0.21963711
244	0x3e90d768	0.28289342
245	0x3e09e1aa	0.1346499
246	0xbea738b4	-0.3266045
247	0x3e4b1292	0.19831303
248	0x3eb00f7b	0.3438681
249	0x3e0bdbef	0.13658117
250	0x3ec0786c	0.37591875
251	0x3e7c68fb	0.24649422
252	0x3e9233ce	0.2855515
253	0xbddfd8a2	-0.10929991
254	0xbeba8f21	-0.36437324
255	0xbe000ee1	-0.12505676

bias f4 [20]
0	0xbc0ace22	-0.008471997
1	0xbcf69e87	-0.030104889
2	0x3c2c709c	0.010524895
3	0x3bb1d131	0.005426549
4	0xbcce0688	-0.025149599
5	0xbbe9c5f3	-0.007134193
6	0xbd045549	-0.032307897
7	0xbcdf29ec	-0.02724167
8	0xbcb3194e	-0.021862652
9	0x3b62c9fe	0.003460526
10	0xbb32474e	-0.0027203145
11	0x3bb663d1	0.0055660983
12	0xbc3cf926	-0.011534011
13	0xbbf6543c	-0.0075173657
14	0xbc82a0c7	-0.015945805
15	0xbbca48e7	-0.0061732414
16	0xbc0bf341	-0.008541883
17	0x3a628ca0	0.00086421706
18	0xba3be358	-0.0007167361
19	0xbcd74f60	-0.026282966

weight f4 [20, 20]
0	0xbe354e62	-0.17705682
1	0xbecd9576	-0.40153092
2	0x3ec52834	0.38507235
3	0xbec5b973	-0.3861805
4	0xbe006e84	-0.12542158
5	0x3eb4f672	0.35344273
6	0x3df390ca	0.11892851
7	0xbcc211d2	-0.023690138
8	0x3e1b559e	0.15169379
9	0x3d6eec62	0.0583309
10	0xbd3da46a	-0.046299376
11	0x3ea8e9f5	0.32990995
12	0x3e9f9565	0.31168666
13	0xbe5bd190	-0.2146666
14	0xbd63c5a8	-0.05560842
15	0x3cd6fcc6	0.026243579
16	0x3e326993	0.17423086
17	0x3eabb48f	0.33536193
18	0xbec9a854	-0.39386237
19	0xbeaece73	-0.34141883
20	0x3e3462a1	0.17615749
21	0x3dd9b237	0.10629695
22	0xbec0ce25	-0.37657276
23	0xbe8395ba	-0.2570017
24	0x3d9589ab	0.07301649
25	0x3e23b814	0.15988189
26	0x3e333f0d	0.1750452
27	0xbea2c6b5	-0.31792226
28	0x3e066991	0.13126208
29	0xbd44bfa5	-0.04803433
30	0xbcc604f6	-0.024172287
31	0x3e87a44b	0.26492533
32	0xbe60e5e9	-0.21962704
33	0xbebd9c66	-0.37033385
34	0xbe6d0058	-0.23144662
35	0xbe5d8dd5	-0.21636136
36	0xbe7b555b	-0.2454428
37	0x3e3b8e2c	0.18315953
38	0x3e7d6808	0.24746716
39	0xbe16ae77	-0.1471499
40	0x3e7c9bb2	0.24668768
41	0xbe0160a3	-0.1263452
42	0xbe55994b	-0.20859258
43	0x3e7f650f	0.24940895
44	0xbdd828ba	-0.10554643
45	0x3d7b98e8	0.06142512
46	0xbe384ac7	-0.17997275
47	0xbe85c18a	-0.2612422
48	0x3d6c98f3	0.05776305
49	0xbece13de	-0.40249532
50	0x3d0f271a	0.0349494
51	0x3e9fc9c3	0.3120862
52	0x3dd433eb	0.10361465
53	0x3e17e900	0.14834976
54	0xbe775153	-0.24152116
55	0x3e47c395	0.19508202
56	0x3e24ba69	0.16086735
57	0x3ea328ec	0.31867158
58	0xbe9147f0	-0.28375196
59	0xbe5de85b	-0.21670668
60	0x3e7dabc4	0.24772555
61	0x3ea2f72d	0.31829205
62	0x3e1f2ef9	0.15545262
63	0x3d7de730	0.061988056
64	0x3eb71256	0.35756177
65	0x3e066b00	0.13126755
66	0xbd287975	-0.041131455
67	0xbebbc90f	-0.36676833
68	0xbc514a06	-0.012773996
69	0xbc34d6df	-0.011037557
70	0x3e4f804a	0.20263782
71	0xbeccdcd1	-0.4001222
72	0x3e90a2c9	0.28249195
73	0x3dfe1aee	0.1240748
74	0xbe0eb9d1	-0.13938071
75	0x3e9bc114	0.30420744
76	0xbe054476	-0.13014397
77	0x3e96f392	0.29482704
78	0xbd93a4e2	-0.07209183
79	0xbe8d6aae	-0.27620453
80	0xbe9a1e74	-0.3010136
81	0xbe111128	-0.14166701
82	0x3e90b30a	0.28261596
83	0x3e45ac12	0.19303921
84	0x3cdb9b36	0.026807409
85	0xbe5a9c2d	-0.21348639
86	0xbea1500d	-0.31506386
87	0x3e83a210	0.2570958
88	0x3c8cf96f	0.017208783
89	0x3e4ab6a5	0.19796236
90	0x3eb399a0	0.35078144
91	0x3d954098	0.07287711
92	0xbe269757	-0.16268669
93	0x3df1a3ee	0.11798845
94	0x3e77528f	0.24152587
95	0xbe7d8297	-0.24756847
96	0x3ebcbaa8	0.36861157
97	0xbe39f89a	-0.1816124
98	0x3e21ce0c	0.15801257
99	0x3dc03e71	0.0938691
100	0xbeb2ed9e	-0.34946913
101	0xbe9d797e	-0.30756754
102	0x3e3ddbc1	0.1854086
103	0xbe6ec648	-0.23317826
104	0x3ce0a008	0.027420059
105	0x3e8d0e6b	0.27550063
106	0x3dc489d1	0.09596599
107	0x3ead614e	0.338633
108	0xbdcfaf45	-0.10140852
109	0xbea47ea1	-0.3212786
110	0xbe94c011	-0.29052785
111	0xbea36392	-0.31911904
112	0xbe35da35	-0.1775902
113	0x3d6d5a27	0.057947304
114	0x3e9d9270	0.30775785
115	0xbcbb76cc	-0.022883795
116	0xbdc448ae	-0.09584175
117	0x3e24b8d0	0.16086125
118	0xbde1e439	-0.11029858
119	0x3e9aec9f	0.30258653
120	0x3de908c4	0.11378625
121	0x3e4faadf	0.20280026
122	0xbea65dd3	-0.32493457
123	0xbed0a8ee	-0.40753883
124	0xbe9abdc0	-0.30222893
125	0xbd4e940f	-0.05043417
126	0x3d4ce31a	0.05002127
127	0x3e6bd74f	0.23031352
128	0xbb855fa8	-0.004070241
129	0x3e86b7b8	0.2631204
130	0x3deead23	0.11654117
131	0x3e95c0e8	0.29248738
132	0x3e71c070	0.23608565
133	0xbe144ecc	-0.14483184
134	0x3d24c71b	0.040228944
135	0xbdb80ec6	-0.08987193
136	0x3e65223a	0.22376338
137	0xbde1c888	-0.110245764
138	0x3dabcce4	0.08388689
139	0xbdcbcbf4	-0.0995101
140	0xbdb82a28	-0.08992416
141	0x3e9db0a8	0.3079884
142	0xbe9e7258	-0.30946612
143	0x3e15db43	0.14634423
144	0x3b3b606f	0.0028591414
145	0x3ea5a31a	0.32351
146	0x3dcd0a60	0.100117445
147	0xbd6042c7	-0.054751184
148	0xbe732e54	-0.23748142
149	0x3c189cbe	0.009314714
150	0xbe8b8586	-0.27250308
151	0xbd112ad2	-0.035441227
152	0xbe4c2959	-0.19937648
153	0x3ebe4a8e	0.37166256
154	0xbea44141	-0.32081035
155	0xbd8ec891	-0.06971849
156	0x3dfad4b7	0.122476034
157	0xbe8565f3	-0.26054344
158	0x3e1d8075	0.15381034
159	0x3e29ca1f	0.1658101
160	0xbe8bbdec	-0.27293336
161	0xbeb1d289	-0.34730938
162	0xbe999c8d	-0.3000225
163	0xbe341874	-0.17587453
164	0x3e47b0fa	0.19501105
165	0xbeacd549	-0.33756474
166	0xbe9f2118	-0.31079936
167	0x3e9f174d	0.31072465
168	0x3e0adc4b	0.13560598
169	0xbd990ce1	-0.074731596
170	0xbe37a2f5	-0.17933257
171	0x3eb2b530	0.3490386
172	0x3ec28034	0.37988436
173	0xbe00f8ef	-0.1259496
174	0xbe6a8c8a	-0.22905174
175	0x3e7985db	0.24367468
176	0x3e88ec99	0.2674301
177	0xbdc0d644	-0.09415868
178	0x3eb702f9	0.35744455
179	0x3e805438	0.25064254
180	0xbd6bd705	-0.057578105
181	0x3e8c7bfb	0.2743834
182	0x3e8409f7	0.25788853
183	0xbed1aecb	-0.4095367
184	0x3ea5be9f	0.32371995
185	0xbe0e67a8	-0.13906729
186	0xbea6c8ae	-0.3257498
187	0x3ddfd8a5	0.109299935
188	0x3cdb2ec1	0.026755692
189	0xbb09625c	-0.0020963168
190	0xbe6d6933	-0.23184662
191	0x3ea3ef93	0.32018718
192	0x3e2bf444	0.16792399
193	0x3ea5fa44	0.324175
194	0x3dd33768	0.10313302
195	0x3e059a16	0.1304706
196	0xbe47a3e0	-0.19496107
197	0xbe039c1f	-0.12852524
198	0xbe6faac0	-0.2340498
199	0x3de66dd0	0.11251414
200	0x3e678009	0.22607435
201	0xbd760980	-0.060067654
202	0xbeaee1ff	-0.34156796
203	0x3decc6eb	0.11561378
204	0x3e119962	0.14218667
205	0x3e6e2303	0.23255543
206	0x3d4195a4	0.04726185
207	0xbe3f4559	-0.18678798
208	0x3e89c084	0.2690469
209	0xbdab1c7d	-0.08355043
210	0xbe8298ea	-0.2550729
211	0x3e7f5f60	0.24938726
212	0x3e8848be	0.26617998
213	0x3d39b0fd	0.045334805
214	0xbde59a85	-0.11211113
215	0xbe847e1f	-0.25877473
216	0xbe6ba9bb	-0.23013966
217	0xbd59d2f4	-0.053179696
218	0xbe40d079	-0.18829526
219	0x3e51d6f3	0.20492153
220	0x3e970116	0.29493016
221	0xbe0906b9	-0.1338147
222	0x3e94d2d3	0.29067096
223	0xbe74bf9f	-0.23901223
224	0x3e754118	0.23950613
225	0xbd5ccfe1	-0.053909186
226	0x3e90d839	0.28289965
227	0xbe5901d6	-0.21192107
228	0xbec88dd6	-0.39170712
229	0x3e4adcf7	0.19810854
230	0xbc1f5a9a	-0.009726191
231	0x3d81ba92	0.063344136
232	0x3e00dd76	0.1258448
233	0x3eb2202e	0.34790176
234	0xbeb7f121	-0.35926154
235	0x3d416848	0.04721859
236	0xbeb9f143	-0.3631688
237	0x3e8c6420	0.2742014
238	0xbe597086	-0.2123433
239	0xbe8c0c17	-0.27352974
240	0xbe665899	-0.22494735
241	0xbe68aba6	-0.22721729
242	0xbd20acd8	-0.039227337
243	0x3e45b716	0.19308123
244	0xbd4846f7	-0.048895802
245	0x3e9cf383	0.30654535
246	0x3e4e3bde	0.20140025
247	0x3e6472c0	0.22309399
248	0x3e2a036d	0.1660287
249	0x3e44574b	0.19173925
250	0xbe25f553	-0.16206865
251	0xbea4d3ce	-0.32192844
252	0xbe8d62bb	-0.27614388
253	0xbd2f07f9	-0.042732213
254	0x3ab3edc0	0.0013727471
255	0x3d2f59f9	0.042810414

bias f4 [20]
0	0xbcc8565d	-0.024455244
1	0xbc8bc6f2	-0.017062638
2	0x39782bb0	0.00023667398
3	0xbca90b6b	-0.020635327
4	0xbca378f9	-0.019955145
5	0xbc1580b4	-0.0091249235
6	0xbbd75bb2	-0.00657221
7	0xbcf75bb8	-0.030195102
8	0xbbe703ce	-0.007050014
9	0xbca17358	-0.01970832
10	0xbc0f9e86	-0.008765822
11	0xbcaa39e9	-0.020779567
12	0xbbe26a51	-0.0069096466
13	0xbc02f4b4	-0.007992912
14	0xbca27043	-0.019828921
15	0xbc55c019	-0.013046288
16	0x3ba6f125	0.0050946646
17	0x3c1c1702	0.00952697
18	0xbcca9b83	-0.024732357
19	0xbbb6c08a	-0.0055771517

weight f4 [4, 20]
0	0xbd8ed7cc	-0.06974754
1	0x3e26d36b	0.16291587
2	0x3e16f833	0.14743118
3	0xbe1aa0ae	-0.15100357
4	0x3e36ff37	0.17870794
5	0xbd23bc1a	-0.03997431
6	0x3e453523	0.19258551
7	0x3db7502f	0.08950841
8	0xbd74050d	-0.05957513
9	0xbe116d67	-0.1420189
10	0xbe56c874	-0.20974904
11	0xbdd9ebbb	-0.10640665
12	0xbd9b43d3	-0.07581296
13	0xbce0c1a9	-0.027436094
14	0xbdf39756	-0.118940994
15	0x3e1f7e78	0.15575588
16	0x3e296d8e	0.16545698
17	0x3e08df10	0.13366342
18	0xbe1082bf	-0.14112376
19	0x3dc18634	0.09449425
20	0x3e342d5a	0.17595425
21	0xbdd2dcb4	-0.10296002
22	0xbda370c2	-0.07980491
23	0xbe345b69	-0.17612995
24	0xbcffd389	-0.031228798
25	0x3dd01701	0.10160638
26	0x3e256d9e	0.16155097
27	0x3ddd0f86	0.107939765
28	0xbe077b21	-0.13230564
29	0x3d35a434	0.04434605
30	0x3e0ce0f9	0.13757695
31	0x3d3a5476	0.045490704
32	0x3c0d1db5	0.00861304
33	0xbe12f66d	-0.14351816
34	0x3beac7ba	0.0071649225
35	0x3bebaa57	0.007191937
36	0xbd1ef15f	-0.03880441
37	0xbe287972	-0.16452578
38	0xbe0de2f7	-0.13856111
39	0x3e3fe00f	0.18737815
40	0xbe33f23b	-0.17572872
41	0xbd593fbd	-0.0530393
42	0xbcae5314	-0.02127985
43	0xbe14f932	-0.14548185
44	0xbe148669	-0.14504398
45	0x3d8afb68	0.06786233
46	0xbd0b4bc8	-0.034007818
47	0xbd4f19b2	-0.050561614
48	0x3d8d6a61	0.06905056
49	0x3d9547d0	0.07289088
50	0x3e6983f6	0.22804245
51	0xbe3fd447	-0.18733321
52	0xbd8a28fb	-0.06746098
53	0x3e79e97e	0.24405476
54	0x3cbf8186	0.023377191
55	0x3e552ae1	0.20817138
56	0x3e1955fd	0.14974208
57	0x3d7bc21e	0.06146442
58	0xbdb850fa	-0.0899982
59	0xbe21ae62	-0.15789178
60	0x3e1d8597	0.15382992
61	0xbd601b75	-0.054713685
62	0x3dcedb34	0.101004034
63	0x3e3e1700	0.18563461
64	0x3e2c60cd	0.16833802
65	0xbe3fb735	-0.18722232
66	0xbe53f93c	-0.20700544
67	0x3d83138a	0.06400211
68	0xbb825cdb	-0.0039783544
69	0x3e4012b0	0.18757129
70	0xbe11a0f0	-0.14221549
71	0x3e133718	0.14376485
72	0xbe5816a6	-0.2110239
73	0x3e1dfd09	0.15428557
74	0x3de094d3	0.10965886
75	0x3df1ca6d	0.11806188
76	0xbd2a0d2d	-0.04151647
77	0xbe4b7922	-0.19870427
78	0x3e13bbec	0.14427155
79	0xbd7174a1	-0.058949117

bias f4 [4]
0	0xbe51eb96	-0.20500025
1	0xbe1baa39	-0.15201654
2	0x3e08a56b	0.13344352
3	0xbe60e5ed	-0.2196271
